…
    MAX_SIZE: 4000
    MIN_SIZES: (400, 500, 600, 700, 800, 900, 1000, 1100, 1200)
    TASK: SEG
  DETECTIONS_PER_IMAGE: 64
  EVAL_PERIOD: 0
  EXPECTED_RESULTS: []
  KEYPOINT_OKS_SIGMAS: []
  PRECISE_BN:
    ENABLED: True
    NUM_ITER: 200
VERSION: 2
VIS_PERIOD: 0
[06/08 21:23:07] detectron2 INFO: Full config saved to output/centernet/voc/V2_1.0x_voc_512_4gpus_1x_deform_conv_square_depthwise/config.yaml
[06/08 21:23:07] d2.utils.env INFO: Using a generated random seed 7127519
[06/08 21:23:07] d2.engine.defaults INFO: Model:
CenterNet(
  (encoder): ShuffleNetV2(
    (first_conv): Sequential(
      (0): Conv2d(3, 24, kernel_size=(3, 3), stride=(2, 2), padding=(1, 1), bias=False)
      (1): NaiveSyncBatchNorm(24, eps=1e-05, momentum=0.1, affine=True, track_running_stats=True)
      (2): ReLU(inplace=True)
    )
    (maxpool): MaxPool2d(kernel_size=3, stride=2, padding=1, dilation=1, ceil_mode=False)
    (features): Sequential(
      (0): ShuffleV2Block(
        (branch_main): Sequential(
          (0): Conv2d(24, 58, kernel_size=(1, 1), stride=(1, 1), bias=False)
          (1): NaiveSyncBatchNorm(58, eps=1e-05, momentum=0.1, affine=True, track_running_stats=True)
          (2): ReLU(inplace=True)
          (3): Conv2d(58, 58, kernel_size=(3, 3), stride=(2, 2), padding=(1, 1), groups=58, bias=False)
          (4): NaiveSyncBatchNorm(58, eps=1e-05, momentum=0.1, affine=True, track_running_stats=True)
          (5): Conv2d(58, 92, kernel_size=(1, 1), stride=(1, 1), bias=False)
          (6): NaiveSyncBatchNorm(92, eps=1e-05, momentum=0.1, affine=True, track_running_stats=True)
          (7): ReLU(inplace=True)
        )
        (branch_proj): Sequential(
          (0): Conv2d(24, 24, kernel_size=(3, 3), stride=(2, 2), padding=(1, 1), groups=24, bias=False)
          (1): NaiveSyncBatchNorm(24, eps=1e-05, momentum=0.1, affine=True, track_running_stats=True)
          (2): Conv2d(24, 24, kernel_size=(1, 1), stride=(1, 1), bias=False)
          (3): NaiveSyncBatchNorm(24, eps=1e-05, momentum=0.1, affine=True, track_running_stats=True)
          (4): ReLU(inplace=True)
        )
      )
      (1): ShuffleV2Block(
        (branch_main): Sequential(
          (0): Conv2d(58, 58, kernel_size=(1, 1), stride=(1, 1), bias=False)
          (1): NaiveSyncBatchNorm(58, eps=1e-05, momentum=0.1, affine=True, track_running_stats=True)
          (2): ReLU(inplace=True)
          (3): Conv2d(58, 58, kernel_size=(3, 3), stride=(1, 1), padding=(1, 1), groups=58, bias=False)
          (4): NaiveSyncBatchNorm(58, eps=1e-05, momentum=0.1, affine=True, track_running_stats=True)
          (5): Conv2d(58, 58, kernel_size=(1, 1), stride=(1, 1), bias=False)
          (6): NaiveSyncBatchNorm(58, eps=1e-05, momentum=0.1, affine=True, track_running_stats=True)
          (7): ReLU(inplace=True)
        )
      )
      (2): ShuffleV2Block(
        (branch_main): Sequential(
          (0): Conv2d(58, 58, kernel_size=(1, 1), stride=(1, 1), bias=False)
          (1): NaiveSyncBatchNorm(58, eps=1e-05, momentum=0.1, affine=True, track_running_stats=True)
          (2): ReLU(inplace=True)
          (3): Conv2d(58, 58, kernel_size=(3, 3), stride=(1, 1), padding=(1, 1), groups=58, bias=False)
          (4): NaiveSyncBatchNorm(58, eps=1e-05, momentum=0.1, affine=True, track_running_stats=True)
          (5): Conv2d(58, 58, kernel_size=(1, 1), stride=(1, 1), bias=False)
          (6): NaiveSyncBatchNorm(58, eps=1e-05, momentum=0.1, affine=True, track_running_stats=True)
          (7): ReLU(inplace=True)
        )
      )
      (3): ShuffleV2Block(
        (branch_main): Sequential(
          (0): Conv2d(58, 58, kernel_size=(1, 1), stride=(1, 1), bias=False)
          (1): NaiveSyncBatchNorm(58, eps=1e-05, momentum=0.1, affine=True, track_running_stats=True)
          (2): ReLU(inplace=True)
          (3): Conv2d(58, 58, kernel_size=(3, 3), stride=(1, 1), padding=(1, 1), groups=58, bias=False)
          (4): NaiveSyncBatchNorm(58, eps=1e-05, momentum=0.1, affine=True, track_running_stats=True)
          (5): Conv2d(58, 58, kernel_size=(1, 1), stride=(1, 1), bias=False)
          (6): NaiveSyncBatchNorm(58, eps=1e-05, momentum=0.1, affine=True, track_running_stats=True)
          (7): ReLU(inplace=True)
        )
      )
      (4): ShuffleV2Block(
        (branch_main): Sequential(
          (0): Conv2d(116, 116, kernel_size=(1, 1), stride=(1, 1), bias=False)
          (1): NaiveSyncBatchNorm(116, eps=1e-05, momentum=0.1, affine=True, track_running_stats=True)
          (2): ReLU(inplace=True)
          (3): Conv2d(116, 116, kernel_size=(3, 3), stride=(2, 2), padding=(1, 1), groups=116, bias=False)
          (4): NaiveSyncBatchNorm(116, eps=1e-05, momentum=0.1, affine=True, track_running_stats=True)
          (5): Conv2d(116, 116, kernel_size=(1, 1), stride=(1, 1), bias=False)
          (6): NaiveSyncBatchNorm(116, eps=1e-05, momentum=0.1, affine=True, track_running_stats=True)
          (7): ReLU(inplace=True)
        )
        (branch_proj): Sequential(
          (0): Conv2d(116, 116, kernel_size=(3, 3), stride=(2, 2), padding=(1, 1), groups=116, bias=False)
          (1): NaiveSyncBatchNorm(116, eps=1e-05, momentum=0.1, affine=True, track_running_stats=True)
          (2): Conv2d(116, 116, kernel_size=(1, 1), stride=(1, 1), bias=False)
          (3): NaiveSyncBatchNorm(116, eps=1e-05, momentum=0.1, affine=True, track_running_stats=True)
          (4): ReLU(inplace=True)
        )
      )
      (5): ShuffleV2Block(
        (branch_main): Sequential(
          (0): Conv2d(116, 116, kernel_size=(1, 1), stride=(1, 1), bias=False)
          (1): NaiveSyncBatchNorm(116, eps=1e-05, momentum=0.1, affine=True, track_running_stats=True)
          (2): ReLU(inplace=True)
          (3): Conv2d(116, 116, kernel_size=(3, 3), stride=(1, 1), padding=(1, 1), groups=116, bias=False)
          (4): NaiveSyncBatchNorm(116, eps=1e-05, momentum=0.1, affine=True, track_running_stats=True)
          (5): Conv2d(116, 116, kernel_size=(1, 1), stride=(1, 1), bias=False)
          (6): NaiveSyncBatchNorm(116, eps=1e-05, momentum=0.1, affine=True, track_running_stats=True)
          (7): ReLU(inplace=True)
        )
      )
      (6): ShuffleV2Block(
        (branch_main): Sequential(
          (0): Conv2d(116, 116, kernel_size=(1, 1), stride=(1, 1), bias=False)
          (1): NaiveSyncBatchNorm(116, eps=1e-05, momentum=0.1, affine=True, track_running_stats=True)
          (2): ReLU(inplace=True)
          (3): Conv2d(116, 116, kernel_size=(3, 3), stride=(1, 1), padding=(1, 1), groups=116, bias=False)
          (4): NaiveSyncBatchNorm(116, eps=1e-05, momentum=0.1, affine=True, track_running_stats=True)
          (5): Conv2d(116, 116, kernel_size=(1, 1), stride=(1, 1), bias=False)
          (6): NaiveSyncBatchNorm(116, eps=1e-05, momentum=0.1, affine=True, track_running_stats=True)
          (7): ReLU(inplace=True)
        )
      )
      (7): ShuffleV2Block(
        (branch_main): Sequential(
          (0): Conv2d(116, 116, kernel_size=(1, 1), stride=(1, 1), bias=False)
          (1): NaiveSyncBatchNorm(116, eps=1e-05, momentum=0.1, affine=True, track_running_stats=True)
          (2): ReLU(inplace=True)
          (3): Conv2d(116, 116, kernel_size=(3, 3), stride=(1, 1), padding=(1, 1), groups=116, bias=False)
          (4): NaiveSyncBatchNorm(116, eps=1e-05, momentum=0.1, affine=True, track_running_stats=True)
          (5): Conv2d(116, 116, kernel_size=(1, 1), stride=(1, 1), bias=False)
          (6): NaiveSyncBatchNorm(116, eps=1e-05, momentum=0.1, affine=True, track_running_stats=True)
          (7): ReLU(inplace=True)
        )
      )
      (8): ShuffleV2Block(
        (branch_main): Sequential(
          (0): Conv2d(116, 116, kernel_size=(1, 1), stride=(1, 1), bias=False)
          (1): NaiveSyncBatchNorm(116, eps=1e-05, momentum=0.1, affine=True, track_running_stats=True)
          (2): ReLU(inplace=True)
          (3): Conv2d(116, 116, kernel_size=(3, 3), stride=(1, 1), padding=(1, 1), groups=116, bias=False)
          (4): NaiveSyncBatchNorm(116, eps=1e-05, momentum=0.1, affine=True, track_running_stats=True)
          (5): Conv2d(116, 116, kernel_size=(1, 1), stride=(1, 1), bias=False)
          (6): NaiveSyncBatchNorm(116, eps=1e-05, momentum=0.1, affine=True, track_running_stats=True)
          (7): ReLU(inplace=True)
        )
      )
      (9): ShuffleV2Block(
        (branch_main): Sequential(
          (0): Conv2d(116, 116, kernel_size=(1, 1), stride=(1, 1), bias=False)
          (1): NaiveSyncBatchNorm(116, eps=1e-05, momentum=0.1, affine=True, track_running_stats=True)
          (2): ReLU(inplace=True)
          (3): Conv2d(116, 116, kernel_size=(3, 3), stride=(1, 1), padding=(1, 1), groups=116, bias=False)
          (4): NaiveSyncBatchNorm(116, eps=1e-05, momentum=0.1, affine=True, track_running_stats=True)
          (5): Conv2d(116, 116, kernel_size=(1, 1), stride=(1, 1), bias=False)
          (6): NaiveSyncBatchNorm(116, eps=1e-05, momentum=0.1, affine=True, track_running_stats=True)
          (7): ReLU(inplace=True)
        )
      )
      (10): ShuffleV2Block(
        (branch_main): Sequential(
          (0): Conv2d(116, 116, kernel_size=(1, 1), stride=(1, 1), bias=False)
          (1): NaiveSyncBatchNorm(116, eps=1e-05, momentum=0.1, affine=True, track_running_stats=True)
          (2): ReLU(inplace=True)
          (3): Conv2d(116, 116, kernel_size=(3, 3), stride=(1, 1), padding=(1, 1), groups=116, bias=False)
          (4): NaiveSyncBatchNorm(116, eps=1e-05, momentum=0.1, affine=True, track_running_stats=True)
          (5): Conv2d(116, 116, kernel_size=(1, 1), stride=(1, 1), bias=False)
          (6): NaiveSyncBatchNorm(116, eps=1e-05, momentum=0.1, affine=True, track_running_stats=True)
          (7): ReLU(inplace=True)
        )
      )
      (11): ShuffleV2Block(
        (branch_main): Sequential(
          (0): Conv2d(116, 116, kernel_size=(1, 1), stride=(1, 1), bias=False)
          (1): NaiveSyncBatchNorm(116, eps=1e-05, momentum=0.1, affine=True, track_running_stats=True)
          (2): ReLU(inplace=True)
          (3): Conv2d(116, 116, kernel_size=(3, 3), stride=(1, 1), padding=(1, 1), groups=116, bias=False)
          (4): NaiveSyncBatchNorm(116, eps=1e-05, momentum=0.1, affine=True, track_running_stats=True)
          (5): Conv2d(116, 116, kernel_size=(1, 1), stride=(1, 1), bias=False)
          (6): NaiveSyncBatchNorm(116, eps=1e-05, momentum=0.1, affine=True, track_running_stats=True)
          (7): ReLU(inplace=True)
        )
      )
      (12): ShuffleV2Block(
        (branch_main): Sequential(
          (0): Conv2d(232, 232, kernel_size=(1, 1), stride=(1, 1), bias=False)
          (1): NaiveSyncBatchNorm(232, eps=1e-05, momentum=0.1, affine=True, track_running_stats=True)
          (2): ReLU(inplace=True)
          (3): Conv2d(232, 232, kernel_size=(3, 3), stride=(2, 2), padding=(1, 1), groups=232, bias=False)
          (4): NaiveSyncBatchNorm(232, eps=1e-05, momentum=0.1, affine=True, track_running_stats=True)
          (5): Conv2d(232, 232, kernel_size=(1, 1), stride=(1, 1), bias=False)
          (6): NaiveSyncBatchNorm(232, eps=1e-05, momentum=0.1, affine=True, track_running_stats=True)
          (7): ReLU(inplace=True)
        )
        (branch_proj): Sequential(
          (0): Conv2d(232, 232, kernel_size=(3, 3), stride=(2, 2), padding=(1, 1), groups=232, bias=False)
          (1): NaiveSyncBatchNorm(232, eps=1e-05, momentum=0.1, affine=True, track_running_stats=True)
          (2): Conv2d(232, 232, kernel_size=(1, 1), stride=(1, 1), bias=False)
          (3): NaiveSyncBatchNorm(232, eps=1e-05, momentum=0.1, affine=True, track_running_stats=True)
          (4): ReLU(inplace=True)
        )
      )
      (13): ShuffleV2Block(
        (branch_main): Sequential(
          (0): Conv2d(232, 232, kernel_size=(1, 1), stride=(1, 1), bias=False)
          (1): NaiveSyncBatchNorm(232, eps=1e-05, momentum=0.1, affine=True, track_running_stats=True)
          (2): ReLU(inplace=True)
          (3): Conv2d(232, 232, kernel_size=(3, 3), stride=(1, 1), padding=(1, 1), groups=232, bias=False)
          (4): NaiveSyncBatchNorm(232, eps=1e-05, momentum=0.1, affine=True, track_running_stats=True)
          (5): Conv2d(232, 232, kernel_size=(1, 1), stride=(1, 1), bias=False)
          (6): NaiveSyncBatchNorm(232, eps=1e-05, momentum=0.1, affine=True, track_running_stats=True)
          (7): ReLU(inplace=True)
        )
      )
      (14): ShuffleV2Block(
        (branch_main): Sequential(
          (0): Conv2d(232, 232, kernel_size=(1, 1), stride=(1, 1), bias=False)
          (1): NaiveSyncBatchNorm(232, eps=1e-05, momentum=0.1, affine=True, track_running_stats=True)
          (2): ReLU(inplace=True)
          (3): Conv2d(232, 232, kernel_size=(3, 3), stride=(1, 1), padding=(1, 1), groups=232, bias=False)
          (4): NaiveSyncBatchNorm(232, eps=1e-05, momentum=0.1, affine=True, track_running_stats=True)
          (5): Conv2d(232, 232, kernel_size=(1, 1), stride=(1, 1), bias=False)
          (6): NaiveSyncBatchNorm(232, eps=1e-05, momentum=0.1, affine=True, track_running_stats=True)
          (7): ReLU(inplace=True)
        )
      )
      (15): ShuffleV2Block(
        (branch_main): Sequential(
          (0): Conv2d(232, 232, kernel_size=(1, 1), stride=(1, 1), bias=False)
          (1): NaiveSyncBatchNorm(232, eps=1e-05, momentum=0.1, affine=True, track_running_stats=True)
          (2): ReLU(inplace=True)
          (3): Conv2d(232, 232, kernel_size=(3, 3), stride=(1, 1), padding=(1, 1), groups=232, bias=False)
          (4): NaiveSyncBatchNorm(232, eps=1e-05, momentum=0.1, affine=True, track_running_stats=True)
          (5): Conv2d(232, 232, kernel_size=(1, 1), stride=(1, 1), bias=False)
          (6): NaiveSyncBatchNorm(232, eps=1e-05, momentum=0.1, affine=True, track_running_stats=True)
          (7): ReLU(inplace=True)
        )
      )
    )
    (conv_last): Sequential(
      (0): Conv2d(464, 1024, kernel_size=(1, 1), stride=(1, 1), bias=False)
      (1): NaiveSyncBatchNorm(1024, eps=1e-05, momentum=0.1, affine=True, track_running_stats=True)
      (2): ReLU(inplace=True)
    )
  )
  (decoder): Sequential(
    (0): DeformConvSquareDepthWise(
      in_channels=1024, out_channels=512, kernel_size=(3, 3), stride=(1, 1), padding=(1, 1), dilation=(1, 1), groups=512, deformable_groups=1, bias=False
      (conv_offset): Conv2d(512, 1, kernel_size=(1, 1), stride=(1, 1))
      (point_wise): Conv2d(1024, 512, kernel_size=(1, 1), stride=(1, 1), bias=False)
    )
    (1): NaiveSyncBatchNorm(512, eps=1e-05, momentum=0.1, affine=True, track_running_stats=True)
    (2): ReLU(inplace=True)
    (3): Upsample(scale_factor=2.0, mode=nearest)
    (4): DeformConvSquareDepthWise(
      in_channels=512, out_channels=256, kernel_size=(3, 3), stride=(1, 1), padding=(1, 1), dilation=(1, 1), groups=256, deformable_groups=1, bias=False
      (conv_offset): Conv2d(256, 1, kernel_size=(1, 1), stride=(1, 1))
      (point_wise): Conv2d(512, 256, kernel_size=(1, 1), stride=(1, 1), bias=False)
    )
    (5): NaiveSyncBatchNorm(256, eps=1e-05, momentum=0.1, affine=True, track_running_stats=True)
    (6): ReLU(inplace=True)
    (7): Upsample(scale_factor=2.0, mode=nearest)
    (8): DeformConvSquareDepthWise(
      in_channels=256, out_channels=128, kernel_size=(3, 3), stride=(1, 1), padding=(1, 1), dilation=(1, 1), groups=128, deformable_groups=1, bias=False
      (conv_offset): Conv2d(128, 1, kernel_size=(1, 1), stride=(1, 1))
      (point_wise): Conv2d(256, 128, kernel_size=(1, 1), stride=(1, 1), bias=False)
    )
    (9): NaiveSyncBatchNorm(128, eps=1e-05, momentum=0.1, affine=True, track_running_stats=True)
    (10): ReLU(inplace=True)
    (11): Upsample(scale_factor=2.0, mode=nearest)
  )
  (head): MultiConvsHeads(
    (cls_feat): Sequential(
      (0): DeformConvSquareDepthWise(
        in_channels=128, out_channels=128, kernel_size=(3, 3), stride=(1, 1), padding=(1, 1), dilation=(1, 1), groups=128, deformable_groups=1, bias=False
        (conv_offset): Conv2d(128, 1, kernel_size=(1, 1), stride=(1, 1))
        (point_wise): Conv2d(128, 128, kernel_size=(1, 1), stride=(1, 1), bias=False)
      )
      (1): NaiveSyncBatchNorm(128, eps=1e-05, momentum=0.1, affine=True, track_running_stats=True)
      (2): ReLU(inplace=True)
    )
    (cls_head): Conv2d(128, 20, kernel_size=(1, 1), stride=(1, 1))
    (wh_feat): Sequential(
      (0): DeformConvSquareDepthWise(
        in_channels=128, out_channels=128, kernel_size=(3, 3), stride=(1, 1), padding=(1, 1), dilation=(1, 1), groups=128, deformable_groups=1, bias=False
        (conv_offset): Conv2d(128, 1, kernel_size=(1, 1), stride=(1, 1))
        (point_wise): Conv2d(128, 128, kernel_size=(1, 1), stride=(1, 1), bias=False)
      )
      (1): NaiveSyncBatchNorm(128, eps=1e-05, momentum=0.1, affine=True, track_running_stats=True)
      (2): ReLU(inplace=True)
    )
    (wh_head): Conv2d(128, 2, kernel_size=(1, 1), stride=(1, 1))
    (reg_feat): Sequential(
      (0): DeformConvSquareDepthWise(
        in_channels=128, out_channels=128, kernel_size=(3, 3), stride=(1, 1), padding=(1, 1), dilation=(1, 1), groups=128, deformable_groups=1, bias=False
        (conv_offset): Conv2d(128, 1, kernel_size=(1, 1), stride=(1, 1))
        (point_wise): Conv2d(128, 128, kernel_size=(1, 1), stride=(1, 1), bias=False)
      )
      (1): NaiveSyncBatchNorm(128, eps=1e-05, momentum=0.1, affine=True, track_running_stats=True)
      (2): ReLU(inplace=True)
    )
    (reg_head): Conv2d(128, 2, kernel_size=(1, 1), stride=(1, 1))
  )
)
[06/08 21:23:08] d2.data.build INFO: Removed 0 images with no usable annotations. 16551 images left.
[06/08 21:23:08] d2.data.build INFO: Distribution of instances among all 20 categories:
[36m|  category   | #instances   |  category   | #instances   |  category  | #instances   |
|:-----------:|:-------------|:-----------:|:-------------|:----------:|:-------------|
…
